…
2023-02-20 20:37:43 | WARNING | root | Rolled back to use the default process group for the reduce scatter operation because the reduce_scatter process group size is 7, which is different with the world size 1. Please make sure the process_group parameter uses all the available ranks for the optimal performance.
2023-02-20 20:37:45 | INFO | fairseq_cli.train | FullyShardedDataParallel(
  world_size=7, flatten_parameters=True, mixed_precision=True, 
  (_fsdp_wrapped_module): FlattenParamsWrapper(
    (_fpw_module): TransformerModel(
      (encoder): TransformerEncoder(
        (dropout_module): FairseqDropout(p=0.3)
        (embed_tokens): Embedding(50000, 512, padding_idx=1)
        (embed_positions): SinusoidalPositionalEmbedding()
        (layers): ModuleList(
          (0): TransformerEncoderLayer(
            (self_attn): MultiheadAttention(
              (dropout_module): FairseqDropout(p=0.0)
              (k_proj): Linear(in_features=512, out_features=512, bias=True)
              (v_proj): Linear(in_features=512, out_features=512, bias=True)
              (q_proj): Linear(in_features=512, out_features=512, bias=True)
              (out_proj): Linear(in_features=512, out_features=512, bias=True)
            )
            (self_attn_layer_norm): LayerNorm((512,), eps=1e-05, elementwise_affine=True)
            (dropout_module): FairseqDropout(p=0.3)
            (activation_dropout_module): FairseqDropout(p=0.0)
            (fc1): Linear(in_features=512, out_features=2048, bias=True)
            (fc2): Linear(in_features=2048, out_features=512, bias=True)
            (final_layer_norm): LayerNorm((512,), eps=1e-05, elementwise_affine=True)
          )
          (1): TransformerEncoderLayer(
            (self_attn): MultiheadAttention(
              (dropout_module): FairseqDropout(p=0.0)
              (k_proj): Linear(in_features=512, out_features=512, bias=True)
              (v_proj): Linear(in_features=512, out_features=512, bias=True)
              (q_proj): Linear(in_features=512, out_features=512, bias=True)
              (out_proj): Linear(in_features=512, out_features=512, bias=True)
            )
            (self_attn_layer_norm): LayerNorm((512,), eps=1e-05, elementwise_affine=True)
            (dropout_module): FairseqDropout(p=0.3)
            (moe_layer): MOELayer(
              (gate): Top2Gate(
                (wg): Linear(in_features=512, out_features=7, bias=False)
              )
              (experts): ModuleList(
                (0): FullyShardedDataParallel(
                  world_size=1, flatten_parameters=True, mixed_precision=True, 
                  (_fsdp_wrapped_module): FlattenParamsWrapper(
                    (_fpw_module): FeedForwardNetwork(
                      (activation_dropout_module): FairseqDropout(p=0.0)
                      (fc1): Linear(in_features=512, out_features=2048, bias=True)
                      (fc2): Linear(in_features=2048, out_features=512, bias=True)
                      (dropout_module): FairseqDropout(p=0.3)
                    )
                  )
                )
              )
            )
            (final_layer_norm): LayerNorm((512,), eps=1e-05, elementwise_affine=True)
          )
          (2): TransformerEncoderLayer(
            (self_attn): MultiheadAttention(
              (dropout_module): FairseqDropout(p=0.0)
              (k_proj): Linear(in_features=512, out_features=512, bias=True)
              (v_proj): Linear(in_features=512, out_features=512, bias=True)
              (q_proj): Linear(in_features=512, out_features=512, bias=True)
              (out_proj): Linear(in_features=512, out_features=512, bias=True)
            )
            (self_attn_layer_norm): LayerNorm((512,), eps=1e-05, elementwise_affine=True)
            (dropout_module): FairseqDropout(p=0.3)
            (activation_dropout_module): FairseqDropout(p=0.0)
            (fc1): Linear(in_features=512, out_features=2048, bias=True)
            (fc2): Linear(in_features=2048, out_features=512, bias=True)
            (final_layer_norm): LayerNorm((512,), eps=1e-05, elementwise_affine=True)
          )
          (3): TransformerEncoderLayer(
            (self_attn): MultiheadAttention(
              (dropout_module): FairseqDropout(p=0.0)
              (k_proj): Linear(in_features=512, out_features=512, bias=True)
              (v_proj): Linear(in_features=512, out_features=512, bias=True)
              (q_proj): Linear(in_features=512, out_features=512, bias=True)
              (out_proj): Linear(in_features=512, out_features=512, bias=True)
            )
            (self_attn_layer_norm): LayerNorm((512,), eps=1e-05, elementwise_affine=True)
            (dropout_module): FairseqDropout(p=0.3)
            (moe_layer): MOELayer(
              (gate): Top2Gate(
                (wg): Linear(in_features=512, out_features=7, bias=False)
              )
              (experts): ModuleList(
                (0): FullyShardedDataParallel(
                  world_size=1, flatten_parameters=True, mixed_precision=True, 
                  (_fsdp_wrapped_module): FlattenParamsWrapper(
                    (_fpw_module): FeedForwardNetwork(
                      (activation_dropout_module): FairseqDropout(p=0.0)
                      (fc1): Linear(in_features=512, out_features=2048, bias=True)
                      (fc2): Linear(in_features=2048, out_features=512, bias=True)
                      (dropout_module): FairseqDropout(p=0.3)
                    )
                  )
                )
              )
            )
            (final_layer_norm): LayerNorm((512,), eps=1e-05, elementwise_affine=True)
          )
          (4): TransformerEncoderLayer(
            (self_attn): MultiheadAttention(
              (dropout_module): FairseqDropout(p=0.0)
              (k_proj): Linear(in_features=512, out_features=512, bias=True)
              (v_proj): Linear(in_features=512, out_features=512, bias=True)
              (q_proj): Linear(in_features=512, out_features=512, bias=True)
              (out_proj): Linear(in_features=512, out_features=512, bias=True)
            )
            (self_attn_layer_norm): LayerNorm((512,), eps=1e-05, elementwise_affine=True)
            (dropout_module): FairseqDropout(p=0.3)
            (activation_dropout_module): FairseqDropout(p=0.0)
            (fc1): Linear(in_features=512, out_features=2048, bias=True)
            (fc2): Linear(in_features=2048, out_features=512, bias=True)
            (final_layer_norm): LayerNorm((512,), eps=1e-05, elementwise_affine=True)
          )
          (5): TransformerEncoderLayer(
            (self_attn): MultiheadAttention(
              (dropout_module): FairseqDropout(p=0.0)
              (k_proj): Linear(in_features=512, out_features=512, bias=True)
              (v_proj): Linear(in_features=512, out_features=512, bias=True)
              (q_proj): Linear(in_features=512, out_features=512, bias=True)
              (out_proj): Linear(in_features=512, out_features=512, bias=True)
            )
            (self_attn_layer_norm): LayerNorm((512,), eps=1e-05, elementwise_affine=True)
            (dropout_module): FairseqDropout(p=0.3)
            (moe_layer): MOELayer(
              (gate): Top2Gate(
                (wg): Linear(in_features=512, out_features=7, bias=False)
              )
              (experts): ModuleList(
                (0): FullyShardedDataParallel(
                  world_size=1, flatten_parameters=True, mixed_precision=True, 
                  (_fsdp_wrapped_module): FlattenParamsWrapper(
                    (_fpw_module): FeedForwardNetwork(
                      (activation_dropout_module): FairseqDropout(p=0.0)
                      (fc1): Linear(in_features=512, out_features=2048, bias=True)
                      (fc2): Linear(in_features=2048, out_features=512, bias=True)
                      (dropout_module): FairseqDropout(p=0.3)
                    )
                  )
                )
              )
            )
            (final_layer_norm): LayerNorm((512,), eps=1e-05, elementwise_affine=True)
          )
        )
        (layer_norm): LayerNorm((512,), eps=1e-05, elementwise_affine=True)
      )
      (decoder): TransformerDecoder(
        (dropout_module): FairseqDropout(p=0.3)
        (embed_tokens): Embedding(50000, 512, padding_idx=1)
        (embed_positions): SinusoidalPositionalEmbedding()
        (layers): ModuleList(
          (0): TransformerDecoderLayer(
            (dropout_module): FairseqDropout(p=0.3)
            (self_attn): MultiheadAttention(
              (dropout_module): FairseqDropout(p=0.0)
              (k_proj): Linear(in_features=512, out_features=512, bias=True)
              (v_proj): Linear(in_features=512, out_features=512, bias=True)
              (q_proj): Linear(in_features=512, out_features=512, bias=True)
              (out_proj): Linear(in_features=512, out_features=512, bias=True)
            )
            (self_attn_layer_norm): LayerNorm((512,), eps=1e-05, elementwise_affine=True)
            (encoder_attn): MultiheadAttention(
              (dropout_module): FairseqDropout(p=0.0)
              (k_proj): Linear(in_features=512, out_features=512, bias=True)
              (v_proj): Linear(in_features=512, out_features=512, bias=True)
              (q_proj): Linear(in_features=512, out_features=512, bias=True)
              (out_proj): Linear(in_features=512, out_features=512, bias=True)
            )
            (encoder_attn_layer_norm): LayerNorm((512,), eps=1e-05, elementwise_affine=True)
            (activation_dropout_module): FairseqDropout(p=0.0)
            (fc1): Linear(in_features=512, out_features=2048, bias=True)
            (fc2): Linear(in_features=2048, out_features=512, bias=True)
            (final_layer_norm): LayerNorm((512,), eps=1e-05, elementwise_affine=True)
          )
          (1): TransformerDecoderLayer(
            (dropout_module): FairseqDropout(p=0.3)
            (self_attn): MultiheadAttention(
              (dropout_module): FairseqDropout(p=0.0)
              (k_proj): Linear(in_features=512, out_features=512, bias=True)
              (v_proj): Linear(in_features=512, out_features=512, bias=True)
              (q_proj): Linear(in_features=512, out_features=512, bias=True)
              (out_proj): Linear(in_features=512, out_features=512, bias=True)
            )
            (self_attn_layer_norm): LayerNorm((512,), eps=1e-05, elementwise_affine=True)
            (encoder_attn): MultiheadAttention(
              (dropout_module): FairseqDropout(p=0.0)
              (k_proj): Linear(in_features=512, out_features=512, bias=True)
              (v_proj): Linear(in_features=512, out_features=512, bias=True)
              (q_proj): Linear(in_features=512, out_features=512, bias=True)
              (out_proj): Linear(in_features=512, out_features=512, bias=True)
            )
            (encoder_attn_layer_norm): LayerNorm((512,), eps=1e-05, elementwise_affine=True)
            (moe_layer): MOELayer(
              (gate): Top2Gate(
                (wg): Linear(in_features=512, out_features=7, bias=False)
              )
              (experts): ModuleList(
                (0): FullyShardedDataParallel(
                  world_size=1, flatten_parameters=True, mixed_precision=True, 
                  (_fsdp_wrapped_module): FlattenParamsWrapper(
                    (_fpw_module): FeedForwardNetwork(
                      (activation_dropout_module): FairseqDropout(p=0.0)
                      (fc1): Linear(in_features=512, out_features=2048, bias=True)
                      (fc2): Linear(in_features=2048, out_features=512, bias=True)
                      (dropout_module): FairseqDropout(p=0.3)
                    )
                  )
                )
              )
            )
            (final_layer_norm): LayerNorm((512,), eps=1e-05, elementwise_affine=True)
          )
          (2): TransformerDecoderLayer(
            (dropout_module): FairseqDropout(p=0.3)
            (self_attn): MultiheadAttention(
              (dropout_module): FairseqDropout(p=0.0)
              (k_proj): Linear(in_features=512, out_features=512, bias=True)
              (v_proj): Linear(in_features=512, out_features=512, bias=True)
              (q_proj): Linear(in_features=512, out_features=512, bias=True)
              (out_proj): Linear(in_features=512, out_features=512, bias=True)
            )
            (self_attn_layer_norm): LayerNorm((512,), eps=1e-05, elementwise_affine=True)
            (encoder_attn): MultiheadAttention(
              (dropout_module): FairseqDropout(p=0.0)
              (k_proj): Linear(in_features=512, out_features=512, bias=True)
              (v_proj): Linear(in_features=512, out_features=512, bias=True)
              (q_proj): Linear(in_features=512, out_features=512, bias=True)
              (out_proj): Linear(in_features=512, out_features=512, bias=True)
            )
            (encoder_attn_layer_norm): LayerNorm((512,), eps=1e-05, elementwise_affine=True)
            (activation_dropout_module): FairseqDropout(p=0.0)
            (fc1): Linear(in_features=512, out_features=2048, bias=True)
            (fc2): Linear(in_features=2048, out_features=512, bias=True)
            (final_layer_norm): LayerNorm((512,), eps=1e-05, elementwise_affine=True)
          )
          (3): TransformerDecoderLayer(
            (dropout_module): FairseqDropout(p=0.3)
            (self_attn): MultiheadAttention(
              (dropout_module): FairseqDropout(p=0.0)
              (k_proj): Linear(in_features=512, out_features=512, bias=True)
              (v_proj): Linear(in_features=512, out_features=512, bias=True)
              (q_proj): Linear(in_features=512, out_features=512, bias=True)
              (out_proj): Linear(in_features=512, out_features=512, bias=True)
            )
            (self_attn_layer_norm): LayerNorm((512,), eps=1e-05, elementwise_affine=True)
            (encoder_attn): MultiheadAttention(
              (dropout_module): FairseqDropout(p=0.0)
              (k_proj): Linear(in_features=512, out_features=512, bias=True)
              (v_proj): Linear(in_features=512, out_features=512, bias=True)
              (q_proj): Linear(in_features=512, out_features=512, bias=True)
              (out_proj): Linear(in_features=512, out_features=512, bias=True)
            )
            (encoder_attn_layer_norm): LayerNorm((512,), eps=1e-05, elementwise_affine=True)
            (moe_layer): MOELayer(
              (gate): Top2Gate(
                (wg): Linear(in_features=512, out_features=7, bias=False)
              )
              (experts): ModuleList(
                (0): FullyShardedDataParallel(
                  world_size=1, flatten_parameters=True, mixed_precision=True, 
                  (_fsdp_wrapped_module): FlattenParamsWrapper(
                    (_fpw_module): FeedForwardNetwork(
                      (activation_dropout_module): FairseqDropout(p=0.0)
                      (fc1): Linear(in_features=512, out_features=2048, bias=True)
                      (fc2): Linear(in_features=2048, out_features=512, bias=True)
                      (dropout_module): FairseqDropout(p=0.3)
                    )
                  )
                )
              )
            )
            (final_layer_norm): LayerNorm((512,), eps=1e-05, elementwise_affine=True)
          )
          (4): TransformerDecoderLayer(
            (dropout_module): FairseqDropout(p=0.3)
            (self_attn): MultiheadAttention(
              (dropout_module): FairseqDropout(p=0.0)
              (k_proj): Linear(in_features=512, out_features=512, bias=True)
              (v_proj): Linear(in_features=512, out_features=512, bias=True)
              (q_proj): Linear(in_features=512, out_features=512, bias=True)
              (out_proj): Linear(in_features=512, out_features=512, bias=True)
            )
            (self_attn_layer_norm): LayerNorm((512,), eps=1e-05, elementwise_affine=True)
            (encoder_attn): MultiheadAttention(
              (dropout_module): FairseqDropout(p=0.0)
              (k_proj): Linear(in_features=512, out_features=512, bias=True)
              (v_proj): Linear(in_features=512, out_features=512, bias=True)
              (q_proj): Linear(in_features=512, out_features=512, bias=True)
              (out_proj): Linear(in_features=512, out_features=512, bias=True)
            )
            (encoder_attn_layer_norm): LayerNorm((512,), eps=1e-05, elementwise_affine=True)
            (activation_dropout_module): FairseqDropout(p=0.0)
            (fc1): Linear(in_features=512, out_features=2048, bias=True)
            (fc2): Linear(in_features=2048, out_features=512, bias=True)
            (final_layer_norm): LayerNorm((512,), eps=1e-05, elementwise_affine=True)
          )
          (5): TransformerDecoderLayer(
            (dropout_module): FairseqDropout(p=0.3)
            (self_attn): MultiheadAttention(
              (dropout_module): FairseqDropout(p=0.0)
              (k_proj): Linear(in_features=512, out_features=512, bias=True)
              (v_proj): Linear(in_features=512, out_features=512, bias=True)
              (q_proj): Linear(in_features=512, out_features=512, bias=True)
              (out_proj): Linear(in_features=512, out_features=512, bias=True)
            )
            (self_attn_layer_norm): LayerNorm((512,), eps=1e-05, elementwise_affine=True)
            (encoder_attn): MultiheadAttention(
              (dropout_module): FairseqDropout(p=0.0)
              (k_proj): Linear(in_features=512, out_features=512, bias=True)
              (v_proj): Linear(in_features=512, out_features=512, bias=True)
              (q_proj): Linear(in_features=512, out_features=512, bias=True)
              (out_proj): Linear(in_features=512, out_features=512, bias=True)
            )
            (encoder_attn_layer_norm): LayerNorm((512,), eps=1e-05, elementwise_affine=True)
            (moe_layer): MOELayer(
              (gate): Top2Gate(
                (wg): Linear(in_features=512, out_features=7, bias=False)
              )
              (experts): ModuleList(
                (0): FullyShardedDataParallel(
                  world_size=1, flatten_parameters=True, mixed_precision=True, 
                  (_fsdp_wrapped_module): FlattenParamsWrapper(
                    (_fpw_module): FeedForwardNetwork(
                      (activation_dropout_module): FairseqDropout(p=0.0)
                      (fc1): Linear(in_features=512, out_features=2048, bias=True)
                      (fc2): Linear(in_features=2048, out_features=512, bias=True)
                      (dropout_module): FairseqDropout(p=0.3)
                    )
                  )
                )
              )
            )
            (final_layer_norm): LayerNorm((512,), eps=1e-05, elementwise_affine=True)
          )
        )
        (layer_norm): LayerNorm((512,), eps=1e-05, elementwise_affine=True)
        (output_projection): Linear(in_features=512, out_features=50000, bias=False)
      )
    )
  )
)
2023-02-20 20:37:45 | INFO | fairseq_cli.train | task: DummyMTTask
2023-02-20 20:37:45 | INFO | fairseq_cli.train | model: FullyShardedDataParallel
2023-02-20 20:37:45 | INFO | fairseq_cli.train | criterion: MoECrossEntropyCriterion
2023-02-20 20:37:45 | INFO | fairseq_cli.train | num. non-expert model params: 82,763,776 (num. trained: 82,763,776)
…
